components/eamxx/src/physics/cld_fraction/cld_frac_net/cld_frac_net_weights.pth (torch, 96432 bytes, 8 tensors)

ice1.weight f4 [64, 72]
0	0x3d4e6cd3	0.05039675
1	0xbb49f3c8	-0.003081547
2	0x3d6c246c	0.057651922
3	0xbc9b2ef4	-0.018943287
4	0x3b6fd791	0.0036596993
5	0x3d073694	0.033011034
6	0xbbb49a50	-0.0055115595
7	0x3cebf444	0.028802998
8	0xbd02abd9	-0.031902168
9	0x3d814f2a	0.063139275
10	0xbd955adc	-0.07292721
11	0x3cde31fd	0.027123446
12	0xbd895601	-0.06705857
13	0xbb68bb62	-0.003551208
14	0x3c8c3e98	0.01711969
15	0xbd24af0f	-0.04020601
16	0x3d015845	0.03157832
17	0x3d8fe1c3	0.070254825
18	0x3cbb6be9	0.022878604
19	0x3d5d9d5d	0.05410515
20	0xbb6603b4	-0.0035097422
21	0x3a9c1738	0.0011908775
22	0x3b735401	0.0037128928
23	0x3b8cce8e	0.004297084
24	0xbbfc0c81	-0.0076919203
25	0x3d18d6b2	0.037314124
26	0xbc8e85f3	-0.017397856
27	0x3a14aedc	0.0005671808
28	0x3d281b18	0.041041464
29	0x3d51f595	0.051259596
30	0xbd2a6b44	-0.041606203
31	0x3ce1f5a3	0.027582949
32	0x3d2fa1b5	0.042878825
33	0x3ccb7400	0.024835587
34	0xbd25999f	-0.040429708
35	0xbd682dc6	-0.056684278
36	0xbd408bbc	-0.04700826
37	0x3cf14431	0.029451462
38	0x3cd495fd	0.025950426
39	0xbcfa0807	-0.030521406
40	0x3c4afa32	0.012388753
41	0x3d916ac2	0.071004406
42	0x36ac4452	5.133953e-06
43	0x3b6d4d87	0.003620954
44	0xbd57103c	-0.052505717
45	0x3cd3e0eb	0.025864085
46	0xbd94a0e2	-0.072572485
47	0xbd6e688c	-0.058205172
48	0x3d5c6cb7	0.053814616
49	0xbcd2adb0	-0.025717586
50	0x3cfdc41d	0.030977303
51	0x3cf1dff6	0.029525738
52	0xbc0ac789	-0.008470424
53	0x3d65d097	0.05610713
54	0xbce814ef	-0.028330294
55	0x3d33e3ce	0.043918423
56	0x3ca5c0df	0.02023357
57	0x3c884b3c	0.016637437
58	0xbd4e13ec	-0.050311968
59	0x3cb5cd0b	0.022192499
60	0xbb2cc977	-0.00263652
61	0xbd3f5efc	-0.046721444
62	0xbd382e07	-0.04496577
63	0xbc194496	-0.009354731
64	0x3d1063f8	0.035251588
65	0xbd08abc7	-0.033366945
66	0xbd5242cb	-0.05133323
67	0x3d5067c6	0.050880216
68	0x3d11e59a	0.035619356
69	0xbc718913	-0.014742154
70	0xbcd207d7	-0.025638504
71	0x3d194a9d	0.037424672
72	0x3aee12c8	0.0018163556
73	0xba6d3de6	-0.0009050056
74	0x39c75a1e	0.0003802338
75	0x3b88071a	0.004151237
76	0x3a3af15c	0.0007131302
77	0x3b62da77	0.0034615078
78	0x3a6c229b	0.0009007842
79	0xbb852b3e	-0.0040639928
80	0xbaee519c	-0.001818228
81	0x3a65fe6e	0.000877357
82	0xba030caa	-0.00049991405
83	0xbaa285e7	-0.0012399525
84	0xbb8aebd3	-0.004239538
85	0x39648656	0.00021793818
86	0xbba64faf	-0.005075417
87	0x3aeef23b	0.0018230149
88	0x3b06a1cc	0.0020543216
89	0x3b279770	0.0025572442
90	0x3af41f9d	0.0018625144
91	0xbb4bd510	-0.0031102337
92	0xbb0f45be	-0.0021861638
93	0xbb113e40	-0.0022162348
94	0x3a8ea31d	0.0010882352
95	0x3b912d02	0.004430414
96	0xbb2079a4	-0.0024486566
97	0xba73d031	-0.00093007373
98	0x3ac80edf	0.0015263221
99	0x3aba0625	0.0014192505
100	0xba088538	-0.00052078394
101	0x3b6432ca	0.0034820312
102	0xbb15ea3b	-0.0022875208
103	0xbaa8e860	-0.0012886636
104	0x3a11dfe9	0.0005564676
105	0xb8adf51a	-8.2949366e-05
106	0x38935e04	7.027018e-05
107	0xbb66edf6	-0.003523705
108	0x3abfd017	0.0014634159
109	0x3a4c5d8e	0.0007795923
110	0x3a0525a8	0.00050791586
111	0x3a7cfb41	0.0009650477
112	0x3a978194	0.0011559003
113	0x3b061c6d	0.002046372
114	0x3ab6584b	0.0013911811
115	0xbb9af8b6	-0.0047293557
116	0x3b862404	0.004093649
117	0x39c045a2	0.00036672974
118	0x3aaa4d7c	0.0012993063
119	0x3a2daee2	0.0006625486
120	0x3a79cb1c	0.0009528862
121	0x39217aba	0.00015399876
122	0x3afe9149	0.001942196
123	0x3b021f76	0.0019855178
124	0x399813dc	0.00029006496
125	0xba70e85e	-0.0009189899
126	0xbbaadc14	-0.0052142236
127	0x3af31260	0.0018544905
128	0xbb01303c	-0.0019712588
129	0x3ad97740	0.0016591325
130	0x39d41ab5	0.0004045569
131	0x3abe5418	0.0014520911
132	0x3a20ad05	0.00061292975
133	0x3a6ddbc1	0.00090735784
134	0x3a9cccb6	0.0011962864
135	0xbab194cc	-0.0013548373
136	0x3a8cd3eb	0.0010744309
137	0x3b390bb7	0.0028235742
138	0xbb3e36c5	-0.0029024344
139	0xbb3dfce1	-0.002898984
140	0xb984f9f9	-0.00025363246
141	0xbad5415c	-0.0016270089
142	0x3b15c6b8	0.0022854041
143	0x3ae2c691	0.0017301609
144	0xba896e79	-0.0010485194
145	0x3cd455d5	0.025919834
146	0x3b978f90	0.0046252683
147	0x3ce1f3ba	0.027582038
148	0x3c72a5f4	0.014810074
149	0x3d1fff75	0.039061982
150	0xbba335d6	-0.004980783
151	0x3c2826a7	0.010263122
152	0xbccf42bb	-0.025300374
153	0xbc07283c	-0.008249339
154	0x3cb6615c	0.022263221
155	0x3ccf7d34	0.025328256
156	0x3b5a1213	0.0033274933
157	0xbbfe7df3	-0.007766479
158	0xbc1d0866	-0.009584522
159	0xbce09c33	-0.027418232
160	0xbc408f02	-0.011752846
161	0x3cfd49b4	0.030918933
162	0x3bff28ab	0.0077868304
163	0xbc2838cf	-0.0102674505
164	0x3c8839af	0.016629068
165	0x3d2657e5	0.040611167
166	0x3c9d9aeb	0.01923891
167	0xbcb23fbe	-0.02175891
168	0xbd212663	-0.03934325
169	0x3c04d6f7	0.008107892
170	0x3b9092f9	0.0044120518
171	0xbd2d6893	-0.042336058
172	0x39f9b9be	0.0004763137
173	0xbca23c21	-0.019804062
174	0x3c8514fe	0.016245361
175	0x3d21670f	0.039404925
176	0xbc168404	-0.009186748
177	0xbd0e18fc	-0.034691796
178	0x3d7958cd	0.060875703
179	0x3a8f0316	0.0010910954
180	0xbd2715e1	-0.04079235
181	0x3d04aef9	0.03239343
182	0xbc900963	-0.017582601
183	0x3c861011	0.016365083
184	0x3cfb82f3	0.03070209
185	0xbaa4e4f8	-0.0012580445
186	0x3c84bce0	0.016203344
187	0xbc8f7f98	-0.017516896
188	0x3c1d4812	0.009599702
189	0xbd2dd96d	-0.04244368
190	0xbcfce3e9	-0.030870395
191	0x3c4e0c55	0.012576182
192	0x3afa0906	0.0019076176
193	0x3ca5431e	0.020173606
194	0x3c5038ef	0.0127088865
195	0xbd136eb3	-0.035994243
196	0xbd7efa64	-0.06225051
197	0xbc0b9ae4	-0.0085208155
198	0x3c5260e7	0.012840486
199	0xbc6f6247	-0.0146108335
200	0x3c3cff1b	0.011535431
201	0xbc0bd4de	-0.008534638
202	0xbc68c2ed	-0.01420663
203	0x3c32b5b7	0.010907582
204	0xbd0ab847	-0.033867147
205	0x3bb9caa8	0.0056699105
206	0xbb0f36d9	-0.002185276
207	0xbcb34e53	-0.021887934
208	0xbcbea676	-0.023272734
209	0xbcd1320d	-0.025536561
210	0xbd21fb55	-0.03954633
211	0x3ba89d8f	0.0051457356
212	0x3b5f7b84	0.003410072
213	0xbd20208f	-0.03909355
214	0xbc005d07	-0.007834679
215	0x3d15e828	0.036598355
216	0xbb4d1640	-0.003129378
217	0xbabdb489	-0.0014473359
218	0xbbe89a62	-0.007098482
219	0xbc33b1b9	-0.010967665
220	0x3ac073cc	0.0014682948
221	0xbbb5a8a0	-0.0055437833
222	0x3b5ae264	0.00333991
223	0xbbecc6d6	-0.0072258515
224	0xb86dfa65	-5.67384e-05
225	0x3b11f402	0.0022270684
226	0x3c210e10	0.009830013
227	0x3af90e5f	0.0019001475
228	0xbb1a932e	-0.002358626
229	0xba905f59	-0.0011014744
230	0x3bf5c0c2	0.007499785
231	0xbb9e35ac	-0.0048281755
232	0xbc322c47	-0.010874814
233	0xbb0a61b3	-0.0021115362
234	0xbb73cd35	-0.003720117
235	0x3b758226	0.0037461608
236	0x3c044e15	0.008075257
237	0x3c37f90d	0.011228812
238	0x3b1477b9	0.0022654368
239	0xbb17c405	-0.0023157608
240	0x3ba102b8	0.004913654
241	0xbb0bcb50	-0.00213309
242	0xb9bc0900	-0.0003586486
243	0xbb4a44f0	-0.0030863844
244	0xbb896629	-0.0041930866
245	0xbbbeabfe	-0.005818843
246	0xbba47b09	-0.0050195497
247	0x3b3cf98c	0.0028835265
248	0x3b3cf9ad	0.0028835342
249	0xbadd795f	-0.0016897133
250	0x3afc7f47	0.0019264006
251	0x38215834	3.8467537e-05
252	0xba65611b	-0.00087501266
253	0xbafc5a9f	-0.0019253081
254	0x3a5883e8	0.00082594017
255	0x3982639d	0.0002486975

ice1.bias f4 [64]
0	0xbe1823b0	-0.14857364
1	0x3d6c9d9e	0.057767503
2	0xbdb1675a	-0.08662291
3	0xbc8e72c4	-0.017388709
4	0xbe48e926	-0.19620189
5	0xbd128207	-0.035768535
6	0xbc1c85ad	-0.009553355
7	0xbdd7bb01	-0.10533715
8	0xbbb47c2a	-0.0055079656
9	0xbdd8d20a	-0.10586937
10	0xbe1d108e	-0.15338346
11	0xbe1a1d28	-0.15050185
12	0xbe452dd8	-0.19255769
13	0xbdf85f0f	-0.12127506
14	0xbc87b54a	-0.016565938
15	0xbded9c8a	-0.11602123
16	0xbe059c0c	-0.13047808
17	0xbe567159	-0.20941676
18	0xbdf7eb6a	-0.121054485
19	0xbe259fd0	-0.16174245
20	0x3d8e9010	0.069610715
21	0xbe0d2ec8	-0.13787377
22	0xbe13ef5f	-0.14446782
23	0xbe302065	-0.17199858
24	0xbdf6a844	-0.12043813
25	0x3a728a86	0.0009252209
26	0xbe2ee49e	-0.17079398
27	0xbc62bfd3	-0.01383968
28	0xbe071812	-0.13192776
29	0xbdd87596	-0.10569303
30	0xbe0f2b1b	-0.13981287
31	0xbdd2918a	-0.102816656
32	0xbe4739f9	-0.19455709
33	0xbe3266c8	-0.1742202
34	0xbe188d19	-0.14897574
35	0xbdcf211b	-0.10113736
36	0xbc6faef5	-0.014629115
37	0xbdc1559d	-0.094401576
38	0xbe1460b6	-0.14490017
39	0xbe34c230	-0.17652202
40	0xbe5fbee0	-0.21850157
41	0x3ba67401	0.0050797467
42	0x3aa327cc	0.0012447773
43	0xbdf1142e	-0.11771427
44	0xbde64356	-0.11243312
45	0xbe449b56	-0.19199881
46	0xbde0ed74	-0.109827906
47	0xbc1daf35	-0.009624292
48	0xbdc4098a	-0.09572132
49	0xbc2b0786	-0.010438805
50	0xbdfb4b2f	-0.122701995
51	0x3c382f05	0.011241679
52	0xbc86cb39	-0.016454326
53	0xbe0c0c76	-0.13676628
54	0xbe2c6011	-0.16833521
55	0xbe28e5b9	-0.16493882
56	0xbdeb8b08	-0.115011275
57	0xbe152864	-0.14566189
58	0xbe3e4bcf	-0.18583606
59	0xbe40af37	-0.18816839
60	0xbdbf0f88	-0.09329134
61	0xbdb7c613	-0.089733265
62	0xbe253441	-0.16133215
63	0xbe22d293	-0.1590064

ice2.weight f4 [72, 64]
0	0x3d0c5437	0.03426
1	0x3d6be7a9	0.057593975
2	0xbc5b7b1c	-0.013396051
3	0x3ad46a38	0.0016205972
4	0x3d0b8df6	0.03407093
5	0x3bccc9f1	0.006249659
6	0xbbdcdd4b	-0.0067402474
7	0x3dbf7887	0.09349161
8	0xbbc9950b	-0.0061518005
9	0xbc2d44b5	-0.010575463
10	0x3d9bb2fb	0.07602497
11	0xbdd8031b	-0.10547467
12	0xbda38455	-0.07984225
13	0x3c63957e	0.013890622
14	0xbc637dbc	-0.013884958
15	0xbd8a3f97	-0.0675041
16	0x3c1716cd	0.009221745
17	0xbd6ad60c	-0.057333037
18	0xbb0c83a4	-0.0021440769
19	0xbb2426d7	-0.0025047564
20	0x3d3ee2b8	0.046602935
21	0x3d0992f0	0.033587396
22	0xbd0d3cb7	-0.03448173
23	0xbc8aa146	-0.016922604
24	0x3b26bf6b	0.0025443684
25	0x3b94aaa0	0.0045369416
26	0x3cfa7d70	0.030577391
27	0x3c5a6e23	0.013331923
28	0xbd6c5093	-0.05769403
29	0x3abc9eba	0.0014390566
30	0x3d88126c	0.06644139
31	0xbd80baaf	-0.06285607
32	0xbca1ab32	-0.019734953
33	0x3dae7b46	0.08519606
34	0x3c97b24a	0.018517632
35	0x3a9103dc	0.0011063772
36	0xbbf1b065	-0.007375764
37	0xbd492431	-0.04910678
38	0xbd86b471	-0.06577385
39	0xbcdee1a3	-0.027207201
40	0xbd06b8a9	-0.03289095
41	0xbb513e01	-0.0031927826
42	0x3c08c74d	0.008348298
43	0x3c81e240	0.015854955
44	0xbd7f7915	-0.062371332
45	0x3636c6b1	2.7235767e-06
46	0xbc82a56c	-0.01594802
47	0xbb55fc3e	-0.0032651569
48	0x3ca77a4d	0.02044406
49	0x3b81c837	0.003960635
50	0x3d282e4f	0.04105979
51	0xbb80def7	-0.0039328295
52	0x3c075a4a	0.008261273
53	0xbcaf7cf5	-0.021421889
54	0x3c51c77d	0.012803909
55	0xb9b1b28b	-0.00033893096
56	0xbccd5f88	-0.025069967
57	0x3d35b6fb	0.044363957
58	0xbd0384c7	-0.03210905
59	0x3bad4e6c	0.0052888896
60	0x3cb1cedf	0.02170509
61	0xbcae70a4	-0.021293946
62	0x3c5a54e7	0.013325906
63	0x3d096a14	0.03354843
64	0xbc523df2	-0.012832152
65	0xbcf2fc91	-0.029661449
66	0x3d3fd8e4	0.046837702
67	0x3a503a7c	0.0007943285
68	0x3d70af6e	0.058761053
69	0x3c101186	0.00879324
70	0x3b710550	0.0036776848
71	0x3c9d05ba	0.01916777
72	0x3b47f6a5	0.0030512002
73	0xbd181835	-0.03713246
74	0xbcb21f0a	-0.021743316
75	0x3d69af3f	0.057051893
76	0x3c95681c	0.01823812
77	0xbc6aa596	-0.014321705
78	0x3b93b2ca	0.0045073973
79	0xbd832490	-0.06403458
80	0x3d4448dc	0.047921047
81	0xbd69c3fb	-0.057071667
82	0xbca0b079	-0.019615399
83	0x3dbda8c9	0.09260709
84	0xbc56d372	-0.013111936
85	0xbd800c89	-0.06252391
86	0xbd88819a	-0.066653445
87	0x3ca7c272	0.020478461
88	0xbd3ed80c	-0.046592757
89	0x3b09f1ef	0.0021048745
90	0x3d906a77	0.070515566
91	0xbca38578	-0.019961104
92	0x3cf52ea2	0.029929463
93	0xbde3130a	-0.11087616
94	0xbd608ce7	-0.054821875
95	0xba4480fb	-0.0007496026
96	0x3c7bb7d1	0.015363649
97	0x3d431449	0.047626767
98	0x3cf0511d	0.029335553
99	0x3c3ba521	0.011452944
100	0xbacc5724	-0.0015589935
101	0xbc369826	-0.011144673
102	0x3be9bba3	0.0071329637
103	0xbde25669	-0.11051638
104	0xbdb65347	-0.08902603
105	0xbc10a230	-0.008827731
106	0x3b838517	0.0040136683
107	0xbd5eaa8e	-0.054361872
108	0xbc5ff458	-0.013669096
109	0xbc27dbd5	-0.010245283
110	0xbdaf6da4	-0.08565834
111	0x3b86c70b	0.0041130832
112	0xbc37e94f	-0.011225059
113	0xbb98f0a7	-0.00466736
114	0xbdfb8e6c	-0.12283024
115	0xbb00f704	-0.0019678483
116	0xbbfe25df	-0.0077559794
117	0x3bc2889a	0.0059366943
118	0xbd387a2c	-0.045038387
119	0xbadf21f3	-0.0017023667
120	0xbd988527	-0.07447272
121	0x3d54e6b2	0.05197782
122	0xbd52af37	-0.05143663
123	0x3cfd68fa	0.030933846
124	0x3b3c128a	0.0028697574
125	0xbd829005	-0.06375126
126	0x3d9454f7	0.07242768
127	0xbd15d45f	-0.036579486
128	0x3cf39510	0.029734164
129	0x3bc76be9	0.006085862
130	0x3c329677	0.010900131
131	0x3b58e02d	0.0033092604
132	0x3db2150e	0.08695422
133	0xbbd04e4e	-0.006356991
134	0x3bbdcce5	0.0057922476
135	0x3d73366f	0.059378084
136	0x3acffb15	0.0015867675
137	0xbac3e9b9	-0.0014946974
138	0xbd93c954	-0.07216135
139	0xbd39b3f6	-0.04533764
140	0xbd43ac88	-0.04777196
141	0x3d9aba21	0.075550325
142	0xbb9b8403	-0.0047459616
143	0x3d4d484d	0.05011778
144	0x3d4e83b3	0.050418567
145	0xbdbd4353	-0.09241357
146	0xbd767e0a	-0.060178794
147	0xbd820fbe	-0.06350659
148	0x3b47c7ae	0.0030484009
149	0x3d177f5e	0.0369867
150	0x3d99bedf	0.07507109
151	0x3b3487c0	0.0027546734
152	0xbafe42c1	-0.0019398556
153	0x3bac104b	0.0052509657
154	0x3cabbe03	0.020964628
155	0x39a28952	0.0003100136
156	0xbd74fad4	-0.05980952
157	0x3d137ab2	0.036005683
158	0x3cff3b53	0.031156218
159	0x3ba5054e	0.0050360328
160	0x3bee875f	0.007279321
161	0xbc5626b0	-0.013070747
162	0xbd6eea8c	-0.05832915
163	0x3d667399	0.056262586
164	0xbb4898c8	-0.0030608643
165	0xbc1502f5	-0.009094943
166	0x3d584fab	0.052810352
167	0xbd77d2f3	-0.06050391
168	0xbbe739fa	-0.007056472
169	0xbbb3a9a9	-0.0054828716
170	0x3ab4ddc0	0.0013798997
171	0x3d50f7a5	0.051017422
172	0xba626e0d	-0.00086376147
173	0xbccb60b9	-0.024826394
174	0xbd8f508c	-0.06997785
175	0xba4ca09c	-0.0007805915
176	0x3a8b0b49	0.0010608222
177	0xba85a7db	-0.001019712
178	0xbcedc753	-0.02902571
179	0xbb3ed077	-0.0029115954
180	0x3bb688fa	0.005570528
181	0xbda3ee0e	-0.0800439
182	0xbdae8a24	-0.08522442
183	0xbcbfc270	-0.023408145
184	0xbcd9a07e	-0.026565786
185	0x3d1f2985	0.038857955
186	0x3cec48a5	0.028843233
187	0xbd7286fe	-0.05921077
188	0xbc70e064	-0.014701936
189	0x3da30ca0	0.079613924
190	0x3d0675a5	0.03282704
191	0xbcc7c6fc	-0.024386875
192	0x3d52b142	0.051438577
193	0xbda60770	-0.08106887
194	0xbd5e21b9	-0.05423138
195	0xbc54c91a	-0.0129873995
196	0xbd9326a5	-0.07185105
197	0x3b9c6705	0.004773023
198	0x3cee99df	0.029126106
199	0x3d72ce68	0.059278876
200	0x3bb2b57c	0.0054537635
201	0xbd2434b3	-0.04008932
202	0x3c761cf3	0.0150215505
203	0xbde9ed45	-0.11422209
204	0x3cc2d71f	0.023784218
205	0x3d72b37b	0.059253197
206	0x3c325daa	0.010886589
207	0xbd72a837	-0.059242453
208	0xbcb480b0	-0.02203402
209	0xbd92c017	-0.071655445
210	0xbdae13ce	-0.08499871
211	0x3c91acc3	0.017782575
212	0xbd252514	-0.040318564
213	0xbdb1f509	-0.08689315
214	0x3d0f32ed	0.034960676
215	0x3aba6243	0.0014219958
216	0xbcd1c473	-0.02560637
217	0x3c9b28f7	0.018940432
218	0xbd616a46	-0.05503299
219	0xbc40654d	-0.011742902
220	0xbde52ee6	-0.11190586
221	0xbdb0505b	-0.086090766
222	0xbe03d498	-0.12874067
223	0xbd5c1256	-0.053728424
224	0xbda0b781	-0.078475006
225	0x3b768ec2	0.0037621711
226	0xbcb6178f	-0.02222803
227	0xbc89a95a	-0.016804386
228	0xbc5f35ce	-0.013623668
229	0xbc9d4a00	-0.019200325
230	0x3d11ae7f	0.035566803
231	0xbc3922b7	-0.011299781
232	0x3c1b5daf	0.009482785
233	0x3c86bc3a	0.016447175
234	0xbc895797	-0.016765399
235	0x3ca146de	0.019687112
236	0xbdeb67d1	-0.11494411
237	0xbd05b2da	-0.03264127
238	0x3d7318d1	0.05934984
239	0xba55167f	-0.00081286574
240	0x3d278ba6	0.040904664
241	0xbb567908	-0.003272595
242	0xbd89679e	-0.067092165
243	0x3c9a4e43	0.018836146
244	0xbc26caa6	-0.010180151
245	0xbd56a4e9	-0.052403364
246	0x3d01720e	0.03160291
247	0xbca95263	-0.020669168
248	0x3c14bdc4	0.009078447
249	0x3d182b15	0.03715046
250	0x3d31df87	0.043426063
251	0xbd0a0323	-0.033694398
252	0xbd20e13a	-0.039277293
253	0xbd02c0f0	-0.03192228
254	0x3d0a8245	0.03381564
255	0xbc5d4062	-0.01350412

ice2.bias f4 [72]
0	0xbbdb580f	-0.006693847
1	0x3b1f3310	0.002429191
2	0xba0d604a	-0.00053930713
3	0x3beac4f1	0.0071645905
4	0xbb2e25fa	-0.0026572929
5	0x3acd7d74	0.0015677647
6	0x3ab7460b	0.0013982666
7	0xbc2cc519	-0.010545039
8	0xbbae55e1	-0.005320296
9	0x3ac42717	0.0014965263
10	0xbb2bf03c	-0.002623572
11	0xbad64694	-0.0016347938
12	0xbb2749a2	-0.0025526066
13	0xbbe4fd3b	-0.0069881952
14	0xb813ba2a	-3.522091e-05
15	0xbbc8939e	-0.006121113
16	0x3a3ddd8d	0.00072427915
17	0xbc08e23f	-0.0083547225
18	0xbbc6c255	-0.0060656467
19	0x3a98e0c9	0.0011663671
20	0xbbefdd7d	-0.0073201046
21	0x3966a13e	0.00021994577
22	0xbc0487c5	-0.008089011
23	0x3c0527ff	0.008127212
24	0x3bffb4f1	0.0078035523
25	0x39380965	0.00017551107
26	0xbbae408d	-0.0053177536
27	0x3914c99a	0.00014189482
28	0x3a4c7c84	0.00078005367
29	0xbb9a37cf	-0.00470636
30	0x3afc7d5a	0.0019263432
31	0xba514529	-0.0007983023
32	0x395f4926	0.00021294187
33	0xbbe372e1	-0.006941185
34	0xbbc8843c	-0.006119279
35	0x3bb3d211	0.0054876884
36	0xbbc123c3	-0.0058941557
37	0xbaf8d4f2	-0.0018984361
38	0xbae288ab	-0.0017283162
39	0xbb7f5143	-0.0038958348
40	0xba4aa971	-0.0007730937
41	0x3b9d5f1f	0.004802599
42	0x3aa1c7fa	0.0012342923
43	0xba8ce1f9	-0.0010748497
44	0xbbefa509	-0.007313375
45	0x3a98fac4	0.0011671414
46	0x3b1d2789	0.0023979864
47	0x3bce2d86	0.006292048
48	0xbb1bba29	-0.0023762083
49	0xbb6feba2	-0.0036608954
50	0xb99e6e11	-0.00030218114
51	0xbc03b152	-0.008037882
52	0x3c198396	0.009369751
53	0xbba2a645	-0.0049636685
54	0xbb62a9ab	-0.0034585993
55	0x3a9fcb3b	0.0012191305
56	0xbae8a02e	-0.0017747933
57	0xb9ea14cd	-0.00044647456
58	0x3b8618f8	0.004092332
59	0xbbdad405	-0.0066781067
60	0x3b051621	0.002030738
61	0xbafb2516	-0.0019160833
62	0x3b39ef29	0.002837131
63	0xbb64b6c1	-0.003489897
64	0xbc23c6f6	-0.009996166
65	0x3aeece51	0.0018219446
66	0xbbce0dd6	-0.0062882705
67	0xbb38c9a2	-0.0028196354
68	0x3bcabdf9	0.0061871973
69	0x3bbd9735	0.0057858475
70	0xbac20781	-0.0014803262
71	0xba2467d7	-0.0006271577

tot1.weight f4 [64, 144]
0	0x3d59b4bf	0.05315089
1	0x3cf322d3	0.029679691
2	0x3d9190f1	0.071077235
3	0x3b3ada00	0.0028511286
4	0x3cf6563f	0.030070422
5	0x3d237a98	0.039911836
6	0xbd0d7036	-0.03453084
7	0x3dad5c92	0.08464922
8	0x3c2491d6	0.010044536
9	0x3ce9d2fb	0.028542986
10	0x3d1b114e	0.0378583
11	0xbd1e9b0e	-0.03872209
12	0xbd27b0a0	-0.040939927
13	0x3d660073	0.056152772
14	0xbd8b3afe	-0.06798361
15	0x3ef0e2ba	0.4704798
16	0x3d063842	0.032768495
17	0xbcbbf0d2	-0.02294198
18	0x3cf32e54	0.029685177
19	0xbdcdf177	-0.100558214
20	0xbc6d2fa0	-0.014476687
21	0xbc9c8418	-0.019105956
22	0xbd83e1cb	-0.06439551
23	0x3d1ef492	0.03880746
24	0x3d5ece1a	0.054395773
25	0xbb14ad6f	-0.0022686382
26	0x3d097590	0.033559382
27	0xbc3e7765	-0.011625146
28	0xbd02b438	-0.03191015
29	0x3cbd41a5	0.02310259
30	0xbcd5203f	-0.026016353
31	0x3d5cc0bf	0.053894754
32	0xbca84383	-0.020540005
33	0xbd84634a	-0.064642504
34	0xbc1b2b34	-0.00947075
35	0xbc703a69	-0.014662364
36	0xbb8329ff	-0.004002809
37	0x3dd0fb85	0.102042235
38	0x3d823e40	0.063595295
39	0xbcfcabbd	-0.03084361
40	0xbc0b3a60	-0.008497804
41	0x3c9b7e0a	0.018980999
42	0xbce5673c	-0.028003328
43	0xbd0170b1	-0.03160161
44	0xbcbdddb2	-0.023177002
45	0x3d92bade	0.07164548
46	0xbd92c0d7	-0.071656875
47	0xbd036bbc	-0.032085165
48	0xbd391d2b	-0.045193832
49	0x3d676e88	0.056501895
50	0x3d41231b	0.04715262
51	0xbd353226	-0.04423728
52	0xbc84e615	-0.016222993
53	0x3c838192	0.016052995
54	0x3d6a77d0	0.05724317
55	0x3dfeff7f	0.12451076
56	0x3e441657	0.19149147
57	0x3d80bcac	0.06285986
58	0xbd4254bf	-0.0474441
59	0x3dc350df	0.09536909
60	0xbd0e543f	-0.034748312
61	0xbcfe4a6d	-0.031041348
62	0x3da7f57f	0.082011215
63	0x3cfb348d	0.030664707
64	0xbd9d5726	-0.07682638
65	0x3cf8d86d	0.030376637
66	0x3bbdd26d	0.005792907
67	0x3d96bec9	0.07360608
68	0xbccca287	-0.024979843
69	0xbc953868	-0.018215373
70	0xbcdc4a1f	-0.026890812
71	0xbd3bde6c	-0.045866415
72	0x3ba1bcc1	0.0049358313
73	0x3b005d97	0.0019587034
74	0xbb8f70b3	-0.0043774485
75	0x3d0b7fe5	0.034057517
76	0x3c4864df	0.012231081
77	0x3c153524	0.009106908
78	0x3d26faa7	0.040766384
79	0xbc22fe65	-0.009948348
80	0xbb27e6af	-0.0025619676
81	0x3d1352bf	0.035967585
82	0x3c82ec41	0.015981795
83	0x3c61807a	0.013763541
84	0xbb67ec24	-0.0035388554
85	0xbc884a5a	-0.016637016
86	0xbc702f5b	-0.014659728
87	0x3c40428c	0.011734616
88	0x3c37efe2	0.011226626
89	0xbaa2cfc7	-0.0012421542
90	0x3caa8ee6	0.020820092
91	0x3cec8de1	0.028876247
92	0xbd114619	-0.03546724
93	0xbb389457	-0.002816459
94	0x3bf3e6b0	0.0074432716
95	0xbc714a6f	-0.014727219
96	0xbc1ce958	-0.009577118
97	0x3cb257ea	0.021770436
98	0xbc4f3a0e	-0.012648119
99	0xbbe9da78	-0.007136639
100	0x3bf9a6c8	0.007618759
101	0x3cf297e2	0.029613439
102	0x3cfc58df	0.030804096
103	0x3ca9bed8	0.020720884
104	0x3cccc912	0.024998222
105	0x3c80ef6c	0.015739165
106	0x3cde5071	0.027137967
107	0x3d35c436	0.044376574
108	0x3ccd2818	0.025043532
109	0x3d0784bb	0.033085566
110	0xbc37be6b	-0.011214833
111	0x3c1a5689	0.009420046
112	0x3cd7206c	0.026260577
113	0x3d07aa5d	0.033121455
114	0x3c8bb445	0.017053733
115	0x3c8f5198	0.017494962
116	0xbc32d112	-0.010914104
117	0x3cfd08d3	0.030887997
118	0x3c43296d	0.011911732
119	0xbcb4e737	-0.022082908
120	0xbc979d36	-0.018507581
121	0xbb8ba4f8	-0.004261609
122	0x3d72fe3e	0.059324495
123	0x3cbbd8e4	0.02293057
124	0x3cc57ca6	0.024107289
125	0x3cb23857	0.02175538
126	0x3b515b04	0.0031945119
127	0x3cdba784	0.026813276
128	0xbbfcfe66	-0.0077207563
129	0x3c833e5a	0.016020942
130	0x3c66b1f3	0.014080512
131	0x3c9fffbf	0.019531129
132	0x3b793524	0.003802606
133	0x3c6035a2	0.013684662
134	0x3c991158	0.018685028
135	0x3d0d6bcf	0.034526642
136	0x3ca99b1e	0.020703848
137	0x3c85172b	0.016246399
138	0xbc45888d	-0.012056482
139	0xb9d71149	-0.00041020874
140	0x3c6bbe94	0.014388699
141	0x3abf2ca6	0.001458545
142	0x3bbebb4c	0.0058206674
143	0x3d1245a6	0.035710953
144	0xbd62e391	-0.055392805
145	0xbdaa41af	-0.083133094
146	0x3cc16195	0.023606101
147	0xbc11059d	-0.008851436
148	0x3d8d26de	0.06892179
149	0x3c11764a	0.0088783
150	0xbd7e3084	-0.062057987
151	0x3cc0d93c	0.023541085
152	0x3d406a3d	0.046976317
153	0x3db612e4	0.08890322
154	0xbc999c67	-0.018751336
155	0xbd12aaab	-0.035807293
156	0x3e2105d5	0.15724881
157	0x3de6f140	0.112764835
158	0xba2b2444	-0.00065285363
159	0x3dd51a5e	0.1040542
160	0xbd5cdd83	-0.053922188
161	0xbd21c91b	-0.03949843
162	0x3e6942cc	0.22779387
163	0x3cc611ed	0.02417847
164	0x3d835ace	0.06413804
165	0x3c8d010d	0.017212415
166	0xbc009a51	-0.007849292
167	0xbb089740	-0.0020842105
168	0xbcb069c2	-0.021534804
169	0xbc91db9a	-0.01780491
170	0xba29f5ee	-0.0006483485
171	0x3dae0b8c	0.08498296
172	0xbd39c387	-0.045352485
173	0xbd05162e	-0.032491855
174	0x3e876f1b	0.26451954
175	0xbc9db7f0	-0.019252747
176	0xbce34cda	-0.027746607
177	0xbbcc6b68	-0.0062383898
178	0x3de1ca48	0.1102491
179	0xbd1ad4a7	-0.037800457
180	0xbcdca074	-0.026931979
181	0xbd866510	-0.06562245
182	0xbcde5f3f	-0.027145026
183	0xbc4c65a9	-0.01247541
184	0xbc55a4c4	-0.0130397715
185	0x3d5f88af	0.05457371
186	0x3d0ba3bb	0.034091692
187	0x3cb5cdcc	0.022192858
188	0x3b0df4ea	0.0021660873
189	0x3b24df82	0.0025157635
190	0x3d28b09f	0.041184064
191	0x3d3684e0	0.044560313
192	0x3caf73c8	0.021417513
193	0xbbf064d2	-0.0073362375
194	0xbce2f081	-0.027702572
195	0x3e967783	0.29388055
196	0xbd4bbafc	-0.04973887
197	0x3db54d61	0.088526495
198	0xbd2b6ca3	-0.04185165
199	0x3e0ddc55	0.13853581
200	0xbd3589f8	-0.04432103
201	0x3bbeb3cb	0.005819773
202	0xbd85490f	-0.065080754
203	0xbcee5a55	-0.029095808
204	0xbcaf2231	-0.021378608
205	0x3abb7fab	0.0014305016
206	0x3dcbb2ef	0.09946238
207	0xbd1e483b	-0.038643103
208	0x3d7ebb2a	0.062190212
209	0xbc69f58b	-0.014279733
210	0xbc6207e8	-0.01379583
211	0xbd958ff2	-0.07302846
212	0x3c6b6915	0.014368315
213	0xbd21b81e	-0.03948223
214	0xbcafc992	-0.02145842
215	0x3c640754	0.013917763
216	0x3ca942bc	0.020661704
217	0x3d99b07f	0.07504367
218	0x3d2cb33f	0.04216313
219	0x3d15a267	0.036531832
220	0x3d385a84	0.045008197
221	0xbb9ae8ee	-0.0047274744
222	0x3d5029ed	0.050821234
223	0xbc84e75a	-0.016223598
224	0x3c7d715c	0.0154689215
225	0x3d722cb2	0.059124656
226	0x3d25eeb1	0.040510837
227	0x3cf501ec	0.029908143
228	0x3d0d20b7	0.034455027
229	0xbc0a0c58	-0.008425795
230	0x3cbe9755	0.02326552
231	0x3c4e9d16	0.012610694
232	0x3cc4cb47	0.024022711
233	0x3c997269	0.018731313
234	0x3b34093e	0.002747133
235	0x3d2867e3	0.0411147
236	0xbc3f86b1	-0.011689828
237	0x3d2582b3	0.040407848
238	0x3bbbe9e2	0.005734668
239	0xbbdbde30	-0.0067098364
240	0xbb866357	-0.0041011977
241	0x3ce839b9	0.028347837
242	0x3c2ff169	0.010738709
243	0x3c6313ba	0.013859684
244	0xbb575b29	-0.0032860732
245	0x3c853dd5	0.016264835
246	0x3d046e63	0.032331835
247	0x3cba5e8e	0.022750165
248	0xba8a0a9a	-0.0010531724
249	0x3c120d2f	0.008914276
250	0x3c733740	0.014844716
251	0x3cd16e98	0.02556543
252	0x3c78ee00	0.015193462
253	0x3c571372	0.013127195
254	0x3d1fe10e	0.03903299
255	0x3c88785e	0.016658958

tot1.bias f4 [64]
0	0x3ee1a5ad	0.44071713
1	0x3ee04268	0.43800664
2	0x3ed5e0ab	0.4177297
3	0x3f140d2a	0.57832587
4	0x3f314645	0.6924785
5	0x3f1646ab	0.5870158
6	0x3f11d5a1	0.56966597
7	0x3f098b34	0.5372803
8	0x3f276f23	0.65403956
9	0x3eca5b46	0.3952276
10	0x3f1d3704	0.6141207
11	0x3f03049e	0.5117892
12	0x3f0b88c5	0.5450557
13	0x3f1ad091	0.604745
14	0x3f2137fa	0.6297604
15	0x3f09a95e	0.5377406
16	0x3f22af9b	0.635492
17	0x3f0c6e45	0.5485576
18	0x3f16bd2f	0.5888242
19	0x3f12b625	0.5730918
20	0x3f06c37f	0.52642053
21	0x3f1c8094	0.61133695
22	0x3f3906a9	0.7227579
23	0x3f117e66	0.56833494
24	0x3f24e3bc	0.64409995
25	0x3f0e18b7	0.5550646
26	0x3f1959a0	0.5990238
27	0x3e21731b	0.15766566
28	0x3f0a7ca2	0.54096425
29	0x3efe1516	0.49625462
30	0x3f1de802	0.6168214
31	0x3f174561	0.5909024
32	0x3f1828a6	0.59437025
33	0x3f1915e6	0.5979904
34	0x3ebb20db	0.36548504
35	0x3f22486f	0.63391775
36	0x3f11aab6	0.5690111
37	0x3f095f09	0.5366064
38	0x3f1e73fe	0.6189574
39	0x3f11c884	0.5694659
40	0x3f0fe930	0.5621519
41	0x3ee372ad	0.44423428
42	0x3f19a5ce	0.6001862
43	0x3f122e74	0.5710213
44	0x3f146a99	0.57975155
45	0x3ef835cb	0.4847854
46	0x3ef8412a	0.48487216
47	0x3f12d5f4	0.57357717
48	0x3f245255	0.6418813
49	0x3f183c9e	0.59467494
50	0x3efbd449	0.49185398
51	0x3f20ccef	0.62812704
52	0x3f2e6495	0.68122226
53	0x3f116378	0.567924
54	0x3ecf9506	0.40543383
55	0x3f16cd0c	0.58906627
56	0x3efb2aca	0.49056083
57	0x3f080b7b	0.5314252
58	0x3eeadfe7	0.4587395
59	0x3f19ca12	0.6007396
60	0x3f0cb420	0.5496235
61	0x3f06dd69	0.52681595
62	0x3f099053	0.53735846
63	0x3f0573d3	0.5212986

tot2.weight f4 [72, 64]
0	0x3d6ccb2c	0.057810947
1	0xbdd9461e	-0.10609077
2	0x3dfe6d1c	0.12423155
3	0xbdb0386c	-0.086045116
4	0xbdcc64d5	-0.0998017
5	0xbdbc5e58	-0.09197682
6	0xbde30b13	-0.110860966
7	0xbca1e5d7	-0.019762916
8	0x3e5515c6	0.20809087
9	0xbc826414	-0.015916862
10	0xbd0b8117	-0.034058657
11	0xbde48b0c	-0.111593336
12	0xbd6a21b0	-0.057161033
13	0xbdc87ed4	-0.097898155
14	0xbdae3137	-0.08505481
15	0xbbdbcda0	-0.006707862
16	0xbdb995fa	-0.09061809
17	0x3e224014	0.15844756
18	0xbdcde5e7	-0.10053616
19	0x3d121076	0.03566023
20	0x3c2787d4	0.010225255
21	0x3d0d632c	0.034518406
22	0x3dbc4dee	0.091945514
23	0x3d2729b4	0.040811256
24	0x3e5948b9	0.21219148
25	0x3d23fd85	0.040036697
26	0xbdcd264f	-0.100170724
27	0xbc94bd8a	-0.018156786
28	0x3dba265d	0.090893485
29	0xbddf6585	-0.10908035
30	0x3c75c55b	0.0150006665
31	0x3c12acaf	0.008952304
32	0x3e53da3f	0.20688723
33	0xbb6acf09	-0.003582897
34	0x3cebd0ce	0.02878609
35	0x3d002165	0.031281848
36	0xbdbbd1bb	-0.09170862
37	0xbc9ecb52	-0.01938406
38	0x3e04e6ab	0.12978618
39	0xbc90ac4e	-0.017660286
40	0x3d91edfa	0.071254686
41	0xbd7001ab	-0.05859534
42	0x3b9370bb	0.0044995225
43	0xbd886892	-0.0666057
44	0x3ce5aa29	0.02803524
45	0x3d11140d	0.035419513
46	0xbd6a3aee	-0.057185106
47	0x3cb1cefd	0.021705145
48	0x3ac35668	0.001490307
49	0xbca609d6	-0.020268362
50	0xbd9ded21	-0.077112444
51	0x3c7ee552	0.015557604
52	0x3e41367e	0.18868443
53	0xbe028a81	-0.12748148
54	0xbd66e8f4	-0.056374505
55	0xbc8eb945	-0.017422328
56	0x3e1981ec	0.14990968
57	0x3d67d646	0.05660083
58	0xbd29a12f	-0.041413482
59	0xbd61bed7	-0.05511364
60	0xbd995a7d	-0.074879624
61	0x3d8cadc9	0.068690844
62	0xbd496cf1	-0.04917616
63	0x3e894ee7	0.2681801
64	0x3d4a246f	0.049351152
65	0xbdf8e695	-0.12153355
66	0xbe081205	-0.13288124
67	0x3c69c0eb	0.014267187
68	0x3dfcb3ec	0.12339005
69	0xbdb3bd53	-0.08776345
70	0x3c9e1f56	0.019302052
71	0xbcf23877	-0.02956794
72	0xb9fbcd09	-0.00048027214
73	0xbc47b97b	-0.012190218
74	0xbcbc25e5	-0.022967288
75	0xbba8f52e	-0.005156181
76	0x3b75f1ec	0.003752823
77	0x3d880ef9	0.06643481
78	0x3d3f7aac	0.04674785
79	0xbd8a9530	-0.067667365
80	0x3cf70ccd	0.030157471
81	0xbe2a7f39	-0.16650094
82	0xbde79a1e	-0.113086924
83	0xbda16810	-0.078811765
84	0xbd48a894	-0.048988894
85	0x3d4efc80	0.05053377
86	0x3d3ae84e	0.0456317
87	0x3c6cf270	0.0144620985
88	0x3e0ac4fc	0.13551706
89	0xbbff405b	-0.007789654
90	0x3b49c830	0.0030789487
91	0xbc02ccd5	-0.007983406
92	0xbd92db2f	-0.07170712
93	0x3ba941ef	0.0051653306
94	0xbe06445e	-0.13112018
95	0x3e924ef9	0.28575876
96	0xbc51c753	-0.01280387
97	0xbca45cff	-0.020063875
98	0x3c67af0f	0.014140858
99	0x3d8cb841	0.06871081
100	0x3eadea01	0.33967593
101	0x3d4e53fd	0.050373066
102	0xbd9667e1	-0.07344032
103	0x3d73815b	0.059449535
104	0xbe026663	-0.1273437
105	0x3db65f35	0.08904878
106	0x394b2118	0.00019371917
107	0x3da318a2	0.07963683
108	0xbd874ab4	-0.06606045
109	0xbe18aed4	-0.14910442
110	0xbd6e80f8	-0.058228463
111	0x3d4a48dc	0.04938589
112	0x3e5b970a	0.21444336
113	0x3a2ac76e	0.00065147027
114	0xbdc17b83	-0.09447386
115	0xbda3d65f	-0.079998724
116	0x3b50e955	0.0031877358
117	0x3d405667	0.0469574
118	0x3e273485	0.16328628
119	0xbcd0572b	-0.02543219
120	0xbde4fa79	-0.11180586
121	0xbcca998b	-0.024731418
122	0x3e7321ed	0.2374341
123	0xbb8467d3	-0.004040697
124	0x3cf60651	0.030032309
125	0x3d809903	0.06279185
126	0xbc598fae	-0.013278885
127	0x3dac16db	0.08402797
128	0x3dae10e6	0.08499317
129	0xbbfd28a3	-0.0077257915
130	0xbc3d26b0	-0.011544868
131	0xbe23a651	-0.15981413
132	0x3cb30f9e	0.021858033
133	0xbd104cb6	-0.035229407
134	0xbdad1253	-0.08450761
135	0x3e87beb1	0.26512673
136	0x3d15ca66	0.036569975
137	0xbd8c5dec	-0.06853852
138	0x3cd93a31	0.026517006
139	0xbd828beb	-0.063743435
140	0xbd382e56	-0.044966064
141	0xbd1a9799	-0.03774223
142	0x3c88139d	0.016610915
143	0x3d3d2f1f	0.046187516
144	0xbca1346f	-0.019678323
145	0x3c803e5d	0.015654737
146	0x3e2eb86c	0.17062539
147	0x3b846d59	0.0040413556
148	0xbd976bcd	-0.07393608
149	0x3e0913fb	0.13386528
150	0xbd88205b	-0.06646796
151	0x3e15a518	0.1461376
152	0xbdf1f454	-0.1181418
153	0xbcfc6945	-0.030811915
154	0xbd86208d	-0.06549177
155	0x3a821877	0.0009925504
156	0xbd81ddae	-0.0634111
157	0xbd9bbc3b	-0.076042615
158	0x3d53d6e8	0.051718622
159	0x3d479cd9	0.048733566
160	0x3c9d2d1d	0.01918655
161	0x3d982896	0.07429616
162	0xbcfcb5ab	-0.030848345
163	0xbd861f07	-0.06548887
164	0x3edb2fc0	0.42809868
165	0x3be88c12	0.007096776
166	0xbc7b6588	-0.015344031
167	0xbd2ce09a	-0.042206384
168	0x3e7b7fe6	0.24560508
169	0x3b5f43c9	0.0034067503
170	0xbd82c61a	-0.06385441
171	0xbddb3933	-0.10704269
172	0x3d3283d5	0.043582756
173	0x3e0a8cac	0.13530225
174	0x3b1df244	0.00241007
175	0xbcdbfeb4	-0.02685485
176	0xbcaf1c1c	-0.021375708
177	0x3e1ff6b5	0.15621455
178	0xbd820f8c	-0.063506216
179	0x3daacaa9	0.083394356
180	0xbdd4c728	-0.103895485
181	0xbcc0cf90	-0.023536474
182	0xbc975ff0	-0.018478364
183	0xbd19578b	-0.037437003
184	0x3dadfe3a	0.084957555
185	0xbc7b5126	-0.0153391715
186	0xbde315e9	-0.110881634
187	0x3c3d0bf9	0.011538499
188	0x3d210f2b	0.039321106
189	0xbd3ada7b	-0.045618515
190	0xbca6f5e2	-0.020380918
191	0xbdab834a	-0.08374651
192	0xbc07659d	-0.008263973
193	0xbd35c54e	-0.044377618
194	0xbd27803f	-0.04089379
195	0x3dfcc832	0.12342872
196	0xbd5092e2	-0.05092133
197	0x3da426b6	0.08015196
198	0x3e1fb507	0.155964
199	0xbd033ccc	-0.032040402
200	0xbb952e9e	-0.0045526763
201	0xbd29dd27	-0.041470673
202	0x3c8a4670	0.01687929
203	0x3e13ab93	0.14420919
204	0x3d533652	0.051565476
205	0x3d46add2	0.04850561
206	0xbbe361f9	-0.0069391695
207	0x3d3ca4a2	0.046055444
208	0xbd1be314	-0.038058355
209	0xbd2fdaa4	-0.04293312
210	0xbd5eac47	-0.054363515
211	0x3dc69535	0.09696428
212	0xbdc972bf	-0.09836339
213	0x3e19e170	0.15027404
214	0x3d589dca	0.052884854
215	0x3e12661e	0.14296767
216	0xbd3d0947	-0.046151426
217	0xbc0c8341	-0.008576215
218	0xbcd5e265	-0.02610893
219	0xbb4902ef	-0.0030671915
220	0xbdd58b67	-0.104269795
221	0x3ae1366e	0.0017182359
222	0x3ddfddf3	0.10931005
223	0xbd40d6ce	-0.047079854
224	0xbda76292	-0.08173098
225	0xbd8a32f8	-0.06748003
226	0xbca66912	-0.020313773
227	0xbdac780a	-0.08421333
228	0xbc93ffe2	-0.01806635
229	0x3d6f412a	0.058411755
230	0xbd5dbcaf	-0.05413502
231	0xbba35cff	-0.004985451
232	0xbd3ac52f	-0.045598205
233	0x3d4d1faa	0.050079025
234	0x3d358ed6	0.044325672
235	0xbe1e28c4	-0.15445238
236	0x3ed9ef2e	0.42565292
237	0xbe02b245	-0.12763317
238	0xbd92cfb1	-0.0716852
239	0x3df50d3e	0.11965416
240	0xbd752d77	-0.05985781
241	0xbd39bac9	-0.045344148
242	0xbdc3e8d3	-0.09565892
243	0xbc1a7fe6	-0.009429907
244	0x3db2bb95	0.08727185
245	0xbd8bda9b	-0.06828805
246	0x3e778334	0.24171144
247	0x3e0f842b	0.14015262
248	0x3dae7378	0.08518118
249	0xbd742245	-0.059602994
250	0xbdbbb808	-0.091659606
251	0xbda93b4a	-0.082632616
252	0x3cfb33aa	0.030664284
253	0x3da0fecd	0.078610994
254	0xbda1edae	-0.07906662
255	0xbd0e407b	-0.034729462

tot2.bias f4 [72]
0	0x3e46d6f7	0.1941794
1	0x3e101f5d	0.14074464
2	0x3de8b19d	0.11362002
3	0x3da375fb	0.07981487
4	0x3d6f70b3	0.058457088
5	0x3da59234	0.08084527
6	0x3e3471c5	0.17621525
7	0x3e0f0da9	0.13970055
8	0x3da62677	0.08112805
9	0x3da2524a	0.07925852
10	0x3e2c9c8f	0.16856597
11	0x3e49c863	0.19705348
12	0x3e536be4	0.20646626
13	0x3dbd6354	0.09247461
14	0x3e011ad0	0.12607884
15	0x3e82a954	0.25519812
16	0x3e190ab0	0.14945483
17	0x3e3f932d	0.18708487
18	0x3e0d229a	0.1378273
19	0x3da3cf96	0.07998578
20	0x3e16ab36	0.1471375
21	0x3d924a43	0.071430705
22	0x3e8255fa	0.2545622
23	0xbca7998d	-0.02045896
24	0x3e0cec8f	0.13762115
25	0x3d8e8e41	0.069607265
26	0x3e2852a2	0.16437772
27	0x3de91a46	0.113819644
28	0x3d4f3eb3	0.050596904
29	0x3db5c87c	0.0887613
30	0x3e02f633	0.1278923
31	0x3ddf35cc	0.10898933
32	0x3e1a16f8	0.15047824
33	0x3dd52b6b	0.10408672
34	0x3c2aad05	0.010417228
35	0x3df19b7a	0.11797233
36	0xbbf491ba	-0.007463661
37	0x3e2a770f	0.1664698
38	0x3df7a1a2	0.12091376
39	0x3d4e32a5	0.050341267
40	0x3d0e4c92	0.034740992
41	0x3cfc3160	0.030785263
42	0x3cc978f8	0.024593815
43	0x3d24f479	0.04027221
44	0x3e0ac4bf	0.13551615
45	0x3e25f2ee	0.16205952
46	0x3dd8aade	0.10579465
47	0x3d80a654	0.062817246
48	0x3ded8f49	0.11599595
49	0x3e0c4141	0.13696767
50	0x3d9f52e3	0.07779481
51	0x3e3eef6f	0.18646024
52	0x3df96410	0.121772885
53	0x3e40c6c0	0.18825817
54	0x3d088f7a	0.033339955
55	0x3e135877	0.14389215
56	0x3df6d14d	0.1205164
57	0x3dc7c303	0.097539924
58	0x3dae9f7d	0.08526514
59	0x3dd672d4	0.104711205
60	0x3d075f04	0.0330496
61	0x3de87961	0.11351276
62	0x3e6d6924	0.23184639
63	0x3d3dc0e7	0.046326544
64	0x3e279f12	0.16369274
65	0x3e2a6d7a	0.16643324
66	0x3db1d663	0.08683469
67	0x3def9c84	0.11699775
68	0x3e1ac933	0.15115814
69	0x3c9b2391	0.018937858
70	0x3dbb5f89	0.09149081
71	0x3dccaaef	0.099935405
